temp.pt (torch_old, 1994 bytes, 4 tensors)

fc1.weight f4 [20, 4]
-0.5746038 0.7319192 -1.7812217 -1.0784024 0.054667085 -0.09978806 1.0116173 0.34290272
0.46595547 -0.7423014 -0.13946278 -0.9968908 0.28467098 -0.53498316 -0.01300271 -0.5289055
-0.113700576 0.1442739 1.5469681 0.68208545 0.4532523 -0.58763474 -0.66826785 1.3655182
0.22632964 -0.35454467 0.28176048 -0.8452837 0.14657289 -0.20143692 -0.09793071 0.60361445
0.5645749 -0.90288377 0.28821298 -0.78387684 0.42937228 -0.51442057 -0.25871196 1.4539568
0.81154907 -1.1272402 -0.7067252 -0.34743616 -0.088356666 0.129775 -1.7471217 -1.0158434
-0.30316848 0.42479178 0.78531325 -0.16614379 0.38091958 -0.6493691 -0.694474 -0.8540442
-0.4118557 0.6439931 -1.2523123 -0.45609707 0.4538498 -0.71816874 0.36266282 -0.89483774
0.6238199 -1.0089755 -0.19296363 -0.9418277 0.38755175 -0.61708874 -0.39905235 -1.1363683
0.09707938 -0.19150162 1.6315624 -0.98764986 0.044101186 -0.17894101 -0.8665637 -0.77844334
00000000: 3c19 13bf 0f5f 3b3f 13ff e3bf 1709 8abf
00000010: 98ea 5f3d af5d ccbd ad7c 813f f290 af3e
00000020: b791 ee3e 7707 3ebf 55cf 0ebe 3c34 7fbf
00000030: 65c0 913e a8f4 08bf 5209 55bc 5a66 07bf
00000040: d9db e8bd 8abc 133e 0d03 c63f 279d 2e3f
00000050: af10 e83e 3b6f 16bf 9a13 2bbf 4dc9 ae3f
00000060: f5c2 673e e186 b5be e942 903e 8364 58bf
00000070: 3417 163e 7b45 4ebe e58f c8bd 7a86 1a3f
00000080: fb87 103f 6423 67bf a790 933e 27ac 48bf
00000090: afd6 db3e 11b1 03bf e575 84be 421b ba3f
000000a0: aec1 4f3f 6849 90bf f1eb 34bf 27e3 b1be
000000b0: 57f4 b4bd bde3 043e afa1 dfbf 2807 82bf
000000c0: e638 9bbe 4f7e d93e 4a0a 493f 9921 2abe
000000d0: e407 c33e 0e3d 26bf 0cc9 31bf a4a2 5abf
000000e0: c0de d2be bbdc 243f c54b a0bf 8e85 e9be
000000f0: 005f e83e e8d9 37bf f1ae b93e 1614 65bf
00000100: a9b2 1f3f 1c26 81bf 4298 45be 9f1b 71bf
00000110: 2f6d c63e 87f9 1dbf 9750 ccbe 8474 91bf
00000120: 8ed1 c63d 0019 44be 09d7 d03f 9fd6 7cbf
00000130: 72a3 343d 503c 37be 1ed7 5dbf 1048 47bf

fc1.bias f4 [20]
-0.6773054 0.73647606 -0.6881691 0.10537669 0.24077111 0.24079627 -0.6764234 -0.13214247
-0.26820195 0.38812056 -0.8739359 -0.34772527 -0.2247304 -0.5911967 0.090189464 -0.46022657
-0.7112691 -0.8720731 -0.008793763 0.16195641
00000000: e363 2dbf b289 3c3f da2b 30bf bccf d73d
00000010: b48c 763e 4c93 763e 152a 2dbf 5b50 07be
00000020: c451 89be bdb7 c63e 43ba 5fbf 0c09 b2be
00000030: ba1f 66be ab58 17bf 41b5 b83d d1a2 ebbe
00000040: bb15 36bf 2f40 5fbf b713 10bc e7d7 253e

out.weight f4 [10, 20]
-0.50440425 -1.0600123 -0.22883807 -0.50061333 1.1844642 0.43830296 -0.22654195 0.33843708
-0.35374177 0.900533 0.59314996 -1.4510946 0.13007587 -0.4516514 -0.28406635 -0.42972326
-0.57144743 -0.07973508 -0.76215535 -0.79071945 -0.66519934 -0.3094536 -0.39266893 -0.28772274
0.6932683 0.6839433 -0.017233882 0.3268321 -0.5881143 0.5528615 0.5971636 -0.683458
0.26117066 -0.5950026 -0.18560861 -0.38554394 -0.62202394 -0.38765445 -0.6410293 -0.33825377
-0.5072605 -0.47700867 -0.26252976 -0.66487825 0.7964666 0.74048024 -0.13708614 0.33628282
-0.45985988 0.5665492 0.6801396 -0.43491265 0.30174932 -0.6276668 -0.43527234 -0.42673987
-0.6759513 -0.22543576 -0.5904851 -0.478331 -0.6739692 -0.11958855 -0.4999729 -0.21519206
0.5163296 0.6953275 -0.10135649 0.24457088 -0.57163656 0.6165235 0.55238086 -0.6848191
0.40728623 -0.44999623 -0.3775569 -0.31984347 -0.5533 -0.4758147 -0.5818708 -0.38305548
-0.7223804 0.09720274 -0.43818286 -0.1995073 0.32549748 0.60489166 -0.27038366 0.2845542
-0.5793752 0.6439444 0.5410584 -0.30313605 0.13409087 -0.51006484 -0.52248925 -0.4594548
-0.56557846 -0.41313222 -0.5914026 -0.3790285 -0.703533 0.01254365 -0.6310071 -0.091341406
0.3469006 0.6024686 -0.2852271 0.25734487 -0.57910323 0.64765835 0.6598843 -0.487144
0.36435828 -0.40150526 -0.48227125 -0.4270775 -0.7348644 -0.43136832 -0.54939944 0.23557289
-0.5149985 0.112402625 -0.6197599 -0.01026421 0.28249282 0.5889666 -0.3841858 0.2646984
-0.4634403 0.6446089 0.54153746 -0.18110593 0.2172316 -0.28018785 -0.45572776 -0.5512436
-0.48478392 -0.39442164 -0.56477606 -0.067283586 -0.6138903 0.19699715 -0.66371495 -0.046898
0.3191305 0.5645961 -0.1743848 0.24813174 -0.4369653 0.6168404 0.59050447 -0.14249726
0.35684234 -0.42319697 -0.40515906 -0.5909194 -0.50033885 -0.61346275 -0.61560464 -0.2551386
-0.61944205 0.17224713 -0.72056127 0.15026022 0.3315721 0.6373122 -0.23684773 0.27050108
-0.41394156 0.46542665 0.6214596 -0.45976096 0.68788886 -0.37096512 -0.62909424 -0.56130433
-0.53889054 -0.7660025 -0.6724929 -0.26581854 -0.57826805 0.30099785 -0.442636 0.08125266
0.11082939 0.55373126 -1.126924 0.20958619 -0.32663053 0.57986563 0.5066635 -0.36528635
0.6091664 -0.25333995 -0.5706969 -0.52364933 -0.38953874 -0.8962111 -0.62000144 -0.27709606
00000000: a320 01bf 7cae 87bf 8754 6abe 3228 00bf
00000010: 869c 973f 3f69 e03e 9dfa 67be a047 ad3e
00000020: a41d b5be 5589 663f add8 173f 78bd b9bf
00000030: 9c32 053e da3e e7be 2571 91be b004 dcbe
00000040: 614a 12bf 254c a3bd 9d1c 43bf 976c 4abf
00000050: 814a 2abf b470 9ebe e70b c9be 6550 93be
00000060: 087a 313f e816 2f3f 122e 8dbc 8956 a73e
00000070: a98e 16bf 5588 0d3f b7df 183f 1af7 2ebf
00000080: 29b8 853e 1752 18bf 2f10 3ebe 0466 c5be
00000090: f63c 1fbf a57a c6be 7f1a 24bf 992f adbe
000000a0: d3db 01bf 7b3a f4be 4d6a 86be 7635 2abf
000000b0: 3ce5 4b3f 1d90 3d3f 4f60 0cbe 432d ac3e
000000c0: c172 ebbe 5e09 113f a11d 2e3f dfac debe
000000d0: e37e 9a3e c5ae 20bf 04dc debe a67d dabe
000000e0: 250b 2dbf a2d8 66be 082a 17bf cde7 f4be
000000f0: 3f89 2cbf d7ea f4bd 73fc ffbe 4f5b 5cbe
00000100: 2d2e 043f fc00 323f fe93 cfbd ca70 7a3e
00000110: c656 12bf 7cd4 1d3f d568 0d3f 4e50 2fbf
00000120: d287 d03e e865 e6be 234f c1be 86c2 a3be
00000130: 12a5 0dbf fc9d f3be 7cf5 14bf d91f c4be
00000140: eced 38bf 3b12 c73d 8159 e0be a44b 4cbe
00000150: 9ba7 a63e 2eda 1a3f ba6f 8abe 17b1 913e
00000160: ef51 14bf 8ad9 243f ce82 0a3f a634 9bbe
00000170: 1e4f 093e 9c93 02bf dbc1 05bf a93d ebbe
00000180: c0c9 10bf 1186 d3be 2966 17bf 0610 c2be
00000190: bd1a 34bf e283 4d3c ae89 21bf 3411 bbbd
000001a0: f59c b13e 623b 1a3f 4909 92be b5c2 833e
000001b0: 1c40 14bf f0cc 253f 2dee 283f f06a f9be
000001c0: 2b8d ba3e 1992 cdbe 42ec f6be e7a9 dabe
000001d0: 1320 3cbf 4fdc dcbe 71a5 0cbf 053a 713e
000001e0: f1d6 03bf 5933 e63d 96a8 1ebf 382b 28bc
000001f0: e6a2 903e 84c6 163f 00b4 c4be 8c86 873e
00000200: 0c48 edbe 1705 253f 33a2 0a3f d573 39be
00000210: f671 5e3e c874 8fbe 2655 e9be 4d1e 0dbf
00000220: 9935 f8be a2f1 c9be 2a95 10bf facb 89bd
00000230: ea27 1dbf 9fb9 493e 39e9 29bf 1e18 40bd
00000240: 1365 a33e 5f89 103f ee91 32be 3f16 7e3e
00000250: eab9 dfbe 41e9 1d3f 4d2b 173f cdea 11be
00000260: 0ab4 b63e 46ad d8be 0271 cfbe 7e46 17bf
00000270: 3516 00bf e50b 1dbf 4498 1dbf 87a1 82be
00000280: c193 1ebf 8d61 303e b476 38bf d1dd 193e
00000290: d1c3 a93e e426 233f 3688 72be 1e7f 8a3e
000002a0: 26f0 d3be 674c ee3e fa17 1f3f ca65 ebbe
000002b0: 7c19 303f 24ef bdbe 520c 21bf a4b1 0fbf
000002c0: bbf4 09bf bd18 44bf 7f28 2cbf 5e19 88be
000002d0: 6009 14bf 641c 9a3e 30a1 e2be cb67 a63d
000002e0: 85fa e23d 55c1 0d3f 0c3f 90bf c39d 563e
000002f0: 1e3c a7be 1372 143f b3b4 013f d006 bbbe
00000300: 54f2 1b3f c6b5 81be 3119 12bf e20d 06bf
00000310: 9f71 c7be 176e 65bf 6ab8 1ebf 89df 8dbe

out.bias f4 [10]
0.16003035 0.19326055 -0.02932861 -0.09534861 0.06897163 0.018288089 0.0460872 0.03317675
0.22565968 0.2079261
00000000: ffde 233e 18e6 453e 8e42 f0bc 2246 c3bd
00000010: ff40 8d3d e7d0 953c efc5 3c3d 58e4 073d
00000020: 5513 673e 94ea 543e
