temp.pt (torch_old, 1994 bytes, 4 tensors)

fc1.weight f4 [20, 4]
0	0xbec2483a	-0.3794573
1	0x3e929b8f	0.28634307
2	0xc00dd4ca	-2.2161126
3	0xbfe152ae	-1.7603357
4	0x3f076dfe	0.5290221
5	0xbf7e6dae	-0.9938611
6	0x3f2e92c8	0.6819272
7	0x3d8dd85f	0.06926035
8	0x3f4e1f84	0.8051684
9	0xbed7ab14	-0.4212271
10	0xbf748599	-0.95516354
11	0x3f92a338	1.145606
12	0xbf3ce22b	-0.73782605
13	0x3ef89340	0.48549843
14	0xbf51610f	-0.81788725
15	0x3ed32389	0.4123805
16	0x3ebc2b94	0.36751997
17	0xbf4d3f8f	-0.8017511
18	0xbf12f8f0	-0.574111
19	0x3f84f02d	1.0385796
20	0x3deb2af1	0.114828
21	0xbe7b240e	-0.24525473
22	0x3f7b4655	0.98154193
23	0x3eb6c038	0.35693526
24	0xbeedaec0	-0.46422386
25	0x3deb8a93	0.1150104
26	0xc01beea9	-2.4364417
27	0xbf629ff0	-0.88525295
28	0xbf0bb13a	-0.545673
29	0x3f12c516	0.5733198
30	0xbfe54069	-1.7910281
31	0xc00ae9d6	-2.1705222
32	0x3ef0d036	0.47033852
33	0xbf6617e9	-0.89880234
34	0x3dabad58	0.08382672
35	0xbe938491	-0.28812078
36	0x3e35e896	0.17764506
37	0xbecc170d	-0.39861336
38	0x3f541811	0.8284922
39	0x3fcb1f0c	1.586885
40	0x3e800441	0.25003245
41	0xbee91b4c	-0.45528638
42	0x3ead10c3	0.3380185
43	0x3e8ef7a4	0.2792331
44	0xbefa8c2c	-0.48935068
45	0x3efd13f5	0.49429289
46	0xbffdfedb	-1.9843401
47	0xc003853e	-2.0550075
48	0x3e081412	0.13288906
49	0xbe9fa7e5	-0.3118278
50	0x3f0771bc	0.5290792
51	0x3fad1dee	1.3524759
52	0x3f011151	0.5041705
53	0xbf6e1e4b	-0.93014973
54	0x3f052006	0.5200199
55	0x4000b821	2.0112383
56	0xbebde17e	-0.370861
57	0x3e9888ee	0.2979197
58	0xc00a5c04	-2.1618662
59	0xbfdd59aa	-1.7292988
60	0xbee43f4b	-0.4457954
61	0x3ec94960	0.39313793
62	0xc000e68e	-2.014072
63	0xbff6241b	-1.9229769
64	0xbea974d9	-0.3309696
65	0x3e7c0ad1	0.24613501
66	0xc01e4fb8	-2.4736156
67	0xbfc86f44	-1.5658956
68	0x3ed79837	0.42108318
69	0xbf59c3d5	-0.8506444
70	0x3e0c54e3	0.13704257
71	0xbec8dd1d	-0.39231196
72	0x3d5862f5	0.052828748
73	0x3e64ad6a	0.22331777
74	0x3ff701cc	1.9297423
75	0x3dbae716	0.091261074
76	0xbf28e7f3	-0.65978926
77	0x3ecfce8e	0.40587276
78	0xbf342b5f	-0.7037868
79	0x3e61548f	0.22004913

fc1.bias f4 [20]
0	0xc0076bcd	-2.1159546
1	0x3e6180d7	0.22021805
2	0x3fb01785	1.3757178
3	0xbf0ff723	-0.56236476
4	0x3edfe6ab	0.43730673
5	0x3e303c1d	0.17210431
6	0xbfa865c1	-1.3156053
7	0xbfe404c6	-1.7813957
8	0xbe0126de	-0.12612483
9	0x3f10b66a	0.5652834
10	0xbbb2c468	-0.0054555424
11	0xbff50123	-1.9140972
12	0x3eed94b0	0.46402502
13	0x3fa98579	1.3243858
14	0xc00a2767	-2.158655
15	0xc00914cb	-2.141894
16	0xc0004b19	-2.0045836
17	0xbe4174a9	-0.18892159
18	0x3fa50834	1.2893128
19	0xbf2e89e2	-0.6817914

out.weight f4 [10, 20]
0	0xc0799f89	-3.9003623
1	0xbf8709f0	-1.0549908
2	0x3f8bcb49	1.0921413
3	0xbebcb484	-0.36856472
4	0x3ef0883b	0.46978936
5	0x3f3ca7c4	0.7369349
6	0xbf2fffde	-0.687498
7	0x3db00c91	0.08596147
8	0xbf2d6e02	-0.67745984
9	0xbfd31406	-1.6490486
10	0x3e6a694f	0.22891735
11	0xbf07faa3	-0.53116816
12	0xbf976440	-1.1827469
13	0x3fd5b043	1.6694416
14	0xc0693fed	-3.6445267
15	0xc0133791	-2.3002665
16	0xc00e73f3	-2.225827
17	0xbe078621	-0.1323476
18	0x3fb3b2aa	1.4038899
19	0xbeac5c0d	-0.3366398
20	0xbf866d10	-1.0502033
21	0xbf0a99eb	-0.5414111
22	0x3f353be0	0.70794487
23	0xbeec4304	-0.4614488
24	0x3e52ca5d	0.20585008
25	0x3e1ca6a7	0.15297948
26	0xbf11f5a5	-0.5701545
27	0xbf89694d	-1.073526
28	0xbcc0ad35	-0.023520092
29	0xbedb404b	-0.4282249
30	0xbf36ddd7	-0.7143225
31	0xbfa01cba	-1.2508767
32	0xbeb3db4e	-0.35128254
33	0x3f8eb1bb	1.1147989
34	0xbf86c887	-1.0529946
35	0xbfb23e05	-1.3925177
36	0xbf6f6c69	-0.93524796
37	0x3d4b6201	0.04965401
38	0x3f306bb9	0.6891437
39	0xbf38efa9	-0.7224069
40	0xbf518a73	-0.8185188
41	0xbeb19548	-0.34684205
42	0x3ef525f4	0.47880518
43	0xbed2a82f	-0.4114394
44	0x3f1db99c	0.6161134
45	0x3ee145c3	0.43998536
46	0xbf347eb4	-0.70505834
47	0xbf9d82b0	-1.2305508
48	0xbece0ac5	-0.40242592
49	0xbeae64bb	-0.34061226
50	0xbdc404a3	-0.09571197
51	0xbfa883b8	-1.3165197
52	0xbe8a90b4	-0.27063525
53	0x3f558a08	0.83413744
54	0xbf56aa54	-0.8385365
55	0xbf95b403	-1.169556
56	0xbf9ca597	-1.2238034
57	0xbe87a6ce	-0.2649445
58	0x3efa4d10	0.4888692
59	0xbedac11a	-0.4272545
60	0xbf46a19b	-0.7759034
61	0xbe41b3c5	-0.18916233
62	0x3f120bc4	0.570492
63	0xbf06cc04	-0.52655053
64	0x3f2e1d95	0.6801389
65	0x3db1470f	0.086561315
66	0xbf367547	-0.712727
67	0xbf822ca2	-1.0169871
68	0xbe81d138	-0.25354934
69	0xbe4214e8	-0.18953288
70	0x3dacc527	0.08436041
71	0xbf96c12d	-1.1777703
72	0xbe407df8	-0.18798053
73	0x3f0f834d	0.56059724
74	0xbf492ea7	-0.7858681
75	0xbf888d76	-1.066817
76	0xbf84664e	-1.0343721
77	0xbecd7734	-0.40130007
78	0x3f101a3a	0.5629002
79	0xbeef3727	-0.46721765
80	0xbf20497c	-0.6261213
81	0xbe0013a5	-0.12507494
82	0x3f0d4296	0.5517973
83	0xbefed60f	-0.4977269
84	0x3f43dc12	0.76507676
85	0x3acc0892	0.0015566519
86	0xbf6edacd	-0.93302613
87	0xbf88e61b	-1.0695223
88	0xbeb7acb6	-0.35873955
89	0xbe868064	-0.2626983
90	0x3e4199c5	0.18906315
91	0xbf8f1c2b	-1.1180471
92	0xbe7ab8c4	-0.24484545
93	0x3f1b262a	0.6060511
94	0xbf2ab93b	-0.6668889
95	0xbf7ad876	-0.97986543
96	0xbf853939	-1.0408088
97	0xbefedbbf	-0.49777028
98	0x3f22aefa	0.63548243
99	0xbee7aea4	-0.45250428
100	0xbf2ca1cd	-0.6743439
101	0xbe041da4	-0.12901932
102	0x3f0ca819	0.54943997
103	0xbf09cc28	-0.5382714
104	0x3f3e66b4	0.7437546
105	0x3e2fe4b7	0.17177092
106	0xbf695be6	-0.9115585
107	0xbf94fc9d	-1.1639591
108	0xbecacb00	-0.39608002
109	0xbe847be9	-0.25875786
110	0x3ddace1a	0.10683842
111	0xbf960473	-1.1720108
112	0xbe8301a1	-0.2558718
113	0x3f1f47d5	0.6221898
114	0xbf2b9e4a	-0.67038405
115	0xbf6b5d3a	-0.9193913
116	0xbf8fef9d	-1.1244999
117	0xbea931e5	-0.3304588
118	0x3f0a3b18	0.5399642
119	0xbeefcee8	-0.46837544
120	0xbf162053	-0.5864307
121	0xbe10cc7e	-0.14140508
122	0x3f0ba2c7	0.54545254
123	0xbf125e5a	-0.5717522
124	0x3f488e9b	0.783426
125	0xbde7ce76	-0.11318676
126	0xbf5a676c	-0.8531406
127	0xbf8879c4	-1.066216
128	0xbe2cb76a	-0.16866842
129	0xbe3e034e	-0.18555948
130	0x3e50db98	0.20396268
131	0xbf8a256f	-1.0792674
132	0xbe19cd56	-0.15019736
133	0x3efadded	0.4899744
134	0xbf1a5a61	-0.6029416
135	0xbf5c9107	-0.86158794
136	0xbf842b0e	-1.0325639
137	0xbec4f646	-0.38469142
138	0x3f1785dd	0.59188634
139	0xbeddade1	-0.43296722
140	0xbf15181f	-0.5823993
141	0xbe0ee48d	-0.13954373
142	0x3f0a32a2	0.5398351
143	0xbf17aa43	-0.59244174
144	0x3f2877bb	0.65807694
145	0xbde42dfd	-0.11141584
146	0xbf80efaa	-1.007314
147	0xbf860d82	-1.0472872
148	0xbe1cdc45	-0.15318401
149	0xbe0b809e	-0.13623282
150	0x3e01ebc8	0.126876
151	0xbf8d11f8	-1.1021109
152	0xbe3a66b7	-0.18203245
153	0x3f0ea27a	0.5571667
154	0xbf13c60e	-0.5772408
155	0xbf51d076	-0.8195871
156	0xbf973e3c	-1.1815867
157	0xbebbecf5	-0.3670422
158	0x3f116cd8	0.5680671
159	0xbedc3388	-0.43008065
160	0x3f71abdc	0.9440286
161	0x3e08cf07	0.13360225
162	0x3f93a146	1.1533592
163	0xbf544209	-0.8291326
164	0x3ce4ab51	0.027913721
165	0xbf038f30	-0.5139036
166	0xbf9e280b	-1.235597
167	0xbf2f7cb9	-0.68549687
168	0xbe6bd574	-0.23030645
169	0x3e5c2d6f	0.21501707
170	0x3e19ffb0	0.15038943
171	0xbef7bc4f	-0.48385856
172	0x3e63b6db	0.22237723
173	0x3d1015ff	0.035177227
174	0x3f567c5a	0.83783495
175	0x3e86dcf3	0.26340446
176	0xbf076279	-0.5288463
177	0xbe8d14e7	-0.2755501
178	0x3f0f7f1f	0.56053346
179	0xbf31aa3a	-0.6940037
180	0xbeb95d67	-0.36204073
181	0xbd5fd1c7	-0.05464342
182	0x3ec17621	0.37785438
183	0xbf106a4a	-0.56412184
184	0x3f025a58	0.50919104
185	0xbec49d94	-0.38401473
186	0xbfb3f361	-1.4058648
187	0xbf8a2752	-1.079325
188	0xbe68871d	-0.22707792
189	0xbe448bfb	-0.19194023
190	0x3d7a8731	0.061164085
191	0xbf854ae7	-1.0413483
192	0xbe833392	-0.25625283
193	0x3f4abfbb	0.7919881
194	0xbeb33461	-0.350009
195	0xbf1b19ca	-0.60586226
196	0xbf9c586d	-1.2214485
197	0xbe6ca2e2	-0.2310901
198	0x3f1bbe4a	0.60837233
199	0xbebfba22	-0.37446696

out.bias f4 [10]
0	0x3e694d0f	0.22783302
1	0x3e88678f	0.2664151
2	0x3d24d489	0.04024175
3	0xbb7db9df	-0.0038715524
4	0x3c9fb996	0.019497674
5	0xbd077963	-0.033074748
6	0xbd14e333	-0.036349487
7	0x3bbbb5d7	0.005728464
8	0xbd292d5a	-0.041303016
9	0xbd4bb9fc	-0.049737915
